Modelos/model.tflite (tflite, 2488 bytes, 6 tensors)

functional_203/dense_303/BiasAdd/ReadVariableOp/resource f4 [12]
000000 9d dd c9 3d 0c 2e 7d be d3 95 2a 3e 24 fe 0e be
       0.098567225 -0.24724597 0.16658716 -0.13964134
000010 76 f1 a3 bd 27 57 c2 bb 34 b7 93 bd 01 95 a1 be
       -0.080050394 -0.0059307995 -0.072126776 -0.31558993
000020 21 ae 8a 3e 0a 9b fc bc a1 19 c2 bc 02 8d 0a bd
       0.27085975 -0.030835647 -0.023693861 -0.03382588

functional_203/dense_304/BiasAdd/ReadVariableOp/resource f4 [6]
000000 fa ea 1f bf 07 fa 5d bf f2 8a 64 bf 45 31 52 bd
       -0.6246792 -0.86709636 -0.89274514 -0.05131652
000010 fd b9 93 3d 7d bf 1c be
       0.07213209 -0.15307422

functional_203/dense_305/BiasAdd/ReadVariableOp/resource f4 [3]
000000 1f 22 72 40 5a 1a ce bf b2 d0 5f c0
       3.7833326 -1.6101792 -3.4971128

functional_203/dense_303/MatMul f4 [12, 6]
000000 02 8d 3d bf b4 83 92 be 9b 96 95 be 37 0d 53 3e
       -0.74043286 -0.28616107 -0.29216465 0.2061051
000010 8c f1 7b bb 42 3d 55 3f 6d eb 3e be 75 7a 13 3e
       -0.0038443534 0.83296597 -0.18644495 0.14402182
000020 a3 6d b5 3e b2 6a 9f 3f e6 f1 a5 3f c2 2a 05 3f
       0.3543521 1.2454436 1.2964447 0.5201837
000030 09 9a b3 3e f4 a6 97 3f e9 11 3d 3f 35 23 93 3e
       0.35078457 1.1847825 0.73855454 0.28737798
000040 60 c4 15 bf 32 6d 59 be d8 b7 dd 3e 78 f9 9c 3f
       -0.5850277 -0.21233061 0.43304324 1.2263632
000050 e0 1f dc 3f 16 55 16 3f 7f 4b fe 3e 66 d8 0d 3f
       1.7197227 0.5872358 0.49666974 0.5540832
000060 56 17 05 3f fc 8b 90 3f 4e 6c da 3f da ca 09 3f
       0.5198873 1.129272 1.7064302 0.5382515
000070 e7 c5 c4 3d 2a 6d cb 3d 22 78 e8 3e ef f7 90 3f
       0.096080594 0.09932931 0.45404154 1.1325663
000080 65 0e 97 3f d7 99 18 be ee 5b 74 3f 48 97 07 3f
       1.1801268 -0.14902435 0.95452774 0.5296521
000090 d3 8d 7c 3e 34 00 9c 3f aa 24 b9 3f 94 98 c5 be
       0.24663477 1.2187562 1.4464314 -0.3859297
0000a0 f0 2f 28 3f aa a3 a1 3e 5a 41 c8 be 44 f4 e1 3e
       0.65698147 0.31570178 -0.3911236 0.44131672
0000b0 2e 38 16 3f 3c 98 ed 3e cb 72 68 3f 61 a4 c5 bc
       0.58679473 0.46405208 0.9080016 -0.024126234
0000c0 52 3f b0 3f 86 a8 bd bf 07 3e 89 3f 48 78 1b c0
       1.3769324 -1.4817054 1.0722054 -2.4292164
0000d0 db 3b 14 bf 08 4c e4 bf c8 c2 93 3e 90 57 c0 3f
       -0.5790383 -1.7835703 0.28859544 1.5026722
0000e0 90 a2 88 3f a5 18 13 be bf 02 e7 3e 9b d8 5e be
       1.067461 -0.1436487 0.45119283 -0.21762316
0000f0 c2 a8 9b bd 71 82 a5 3f 33 b8 e8 3f a1 cd df 3e
       -0.076005474 1.2930433 1.8181213 0.4371157
000100 bc 03 00 3f 74 92 c2 3e d8 75 6d 3d b6 f7 c2 3e
       0.500057 0.3800236 0.057973713 0.38079613
000110 0e ea 6c 3f 35 ff e7 3e 31 be 8b 3f 35 e8 23 3f
       0.9254464 0.45311895 1.0917417 0.64026195

functional_203/dense_304/MatMul f4 [6, 12]
000000 cb 87 f4 bf 6c 86 a4 3f e0 0f 07 bf b3 3e 9b 3d
       -1.9103941 1.2853522 -0.527586 0.07580318
000010 d8 12 df 3e 93 01 03 3f 30 13 5f 3e d1 c6 d0 3f
       0.43569064 0.5117428 0.21784663 1.6310674
000020 e0 f0 d0 bf 9c f5 4e 3e e7 c5 32 3f 5d 1f 25 3f
       -1.6323509 0.2021088 0.69833225 0.6450098
000030 f4 93 b5 bf 57 1b 89 3f c2 b3 dc be 47 cc f3 bd
       -1.4185777 1.0711468 -0.43105894 -0.11904197
000040 0e 6b 15 bd 29 b3 c1 3e c8 f9 d6 3d 90 e0 ab 3f
       -0.03647905 0.37832 0.10496861 1.3427906
000050 28 a8 c7 bf 29 a8 73 3e c4 34 da 3e 68 73 c7 3e
       -1.5598192 0.23794617 0.42618382 0.38955235
000060 29 20 b5 bf 84 ce 05 40 bd f6 f6 be 0c 82 0b 3f
       -1.415044 2.0907297 -0.4823512 0.5449531
000070 34 ed 33 3e 93 bb a2 3e 26 3d 90 3e 5f dc 05 40
       0.17570955 0.31783733 0.28171653 2.0915754
000080 63 5a c4 bf 0b e1 84 3d ff c5 52 3f b3 ae 88 3f
       -1.5340084 0.06488236 0.8233337 1.0678314
000090 c0 b2 d4 be 72 30 52 3d 26 9c e1 be bc ea 98 3e
       -0.41542625 0.051315732 -0.44064444 0.29866588
0000a0 6f 89 39 3e 52 5a df be 09 af a2 be d6 33 08 3e
       0.18118833 -0.43623596 -0.31774166 0.13301024
0000b0 7c 9c d5 be a5 d2 5a be 02 57 00 3f 7e 42 02 bf
       -0.4172095 -0.21369417 0.50132763 -0.5088271
0000c0 ca 95 98 3f 29 0b f3 3e 8f 4b e8 bd da 0e 41 3e
       1.1920712 0.47469452 -0.11342537 0.18853322
0000d0 b9 70 5c 3e c0 d5 3e be a9 5d 2f 3e e8 4f 34 bf
       0.21527375 -0.18636227 0.17125572 -0.7043443
0000e0 da 3d 1d bf e9 92 64 3e 16 fd 0f 3f 6f 70 af 3d
       -0.61422503 0.22321667 0.56245553 0.08566367
0000f0 07 96 32 bf fc d6 f4 bf b1 eb 76 3f 9d 58 32 3f
       -0.69760174 -1.9128108 0.96453387 0.69666463
000100 47 6d 81 3f 64 23 04 3f 02 ba 86 3f 01 52 b6 bf
       1.0111474 0.516165 1.0525515 -1.4243776
000110 10 a1 81 c0 35 d0 a5 3f b7 60 c1 3f 0d 5a f8 3e
       -4.050911 1.2954165 1.510764 0.48506203

functional_203/dense_305/MatMul f4 [3, 6]
000000 ed 9f 90 3e 10 35 84 bd b3 d7 71 bd c4 8c 6a 3d
       0.28247014 -0.06455433 -0.059043597 0.05726315
000010 30 ee 8f 3e ef da 0e c0 16 a0 c8 bf a5 b9 1f c0
       0.2811141 -2.2321126 -1.5673854 -2.4957058
000020 40 d2 3c c0 3e fe 14 3f 7e dd 31 3f f9 e6 fd 3f
       -2.9503326 0.5820044 0.69478595 1.9836112
000030 56 3e b7 3f 50 89 86 3f cd e8 0b 3f 4e e0 ad 3d
       1.4315898 1.0510654 0.546521 0.08490048
000040 33 6f 88 be 66 ea 52 be
       -0.26647338 -0.20597228
